data.pth (torch, 21738 bytes, 6 tensors)

l1.weight f4 [8, 358]
000000 aa 9a 0f 3f 36 61 b4 bd 2c e3 0d 3f 69 87 17 3f
       0.56095374 -0.08807604 0.5542476 0.59190995
000010 17 da eb ba 9b 7c e1 3e 6b 63 64 be 81 12 7f 3f
       -0.0017994073 0.4404038 -0.2230355 0.9963761
000020 06 1c 62 be 57 fe 80 3d 1d f8 81 be 67 50 9b be
       -0.22081003 0.062985115 -0.25384608 -0.3033478
000030 4f 02 82 be 28 3b 64 3d 9e 17 06 bd dd 68 29 bf
       -0.25392386 0.05572048 -0.032737367 -0.66175634
000040 ad 24 e8 bd 33 56 a3 be 2f 71 0b bf d6 ff ff 3e
       -0.1133512 -0.31901702 -0.5446958 0.49999875
000050 d4 4c 14 3f f1 64 b2 3f af e8 1a 3d 80 57 9c 3f
       0.5792973 1.3937055 0.03781956 1.2214203
000060 92 79 fa 3f 53 77 10 3f 78 7f 48 be ea 06 83 3e
       1.956835 0.56432074 -0.19579875 0.25591213
000070 cd f8 16 be 39 34 df be 88 70 6d 3e 0b 61 67 be
       -0.14743347 -0.4359453 0.23187459 -0.22595613
000080 f4 f8 a3 be c6 ec 81 bf d1 37 13 3f 68 d0 6c be
       -0.32025874 -1.0150383 0.57507044 -0.23126376
000090 74 96 0b be f2 82 6b bf e1 b4 a4 3e 86 56 7f 3e
       -0.13631612 -0.9199668 0.3216925 0.2493535
0000a0 e4 5e 61 bd 7f e2 f5 3b 57 85 4a be 2a 4a 0b 3f
       -0.055022135 0.007503807 -0.19777428 0.5441004
0000b0 da 9f 4b bf 86 06 49 bf c7 cb cb be b9 78 37 bf
       -0.7954079 -0.7852558 -0.39803907 -0.71668583
0000c0 95 e2 2c 3f 3b 55 14 3f c3 f9 1a bf 30 e3 da 3f
       0.67533237 0.5794255 -0.60537356 1.7100582
0000d0 c6 9f eb be fd 1d 8a bf 84 2d 87 bf 14 44 a5 3f
       -0.46020335 -1.0790402 -1.0560765 1.2911401
0000e0 0c 94 52 be c0 b5 ca be f4 0b f6 3e 02 1b 4c bf
       -0.20564288 -0.3959179 0.48055995 -0.7972871
0000f0 b9 4d 16 bf e4 44 14 3e 26 49 6c 3e 33 d3 83 3f
       -0.58712345 0.14479405 0.23074779 1.0298828
000100 df 87 21 40 4e b9 86 be 96 43 6b be 75 78 14 be
       2.523918 -0.2631325 -0.22975 -0.14499076
000110 87 65 3e 3f 09 2a 8f be 32 e4 75 3f b7 ad 12 bf
       0.7437367 -0.27961758 0.96051323 -0.5729632
000120 05 0d 7e 3e 5e c9 25 bf 76 57 dd 3e 01 d9 82 3e
       0.24809654 -0.64760387 0.4323079 0.25556186
000130 ea 1a ab be 54 b4 4a 40 33 6a 04 40 98 c3 7c 3f
       -0.3341897 3.1672564 2.068982 0.9873595
000140 4e 95 45 3d c6 34 8e be 0b 42 0a 3f 23 cc 8e 3f
       0.04823809 -0.27774638 0.54007024 1.1156048
000150 a9 90 68 3f 6a 9a f6 3f 55 c7 61 3f d6 cc 02 bf
       0.90845734 1.9265873 0.8819478 -0.51093805
000160 30 91 73 3e f8 6c 53 bf 86 c3 83 3f ad 1d 76 3b
       0.23785853 -0.8258815 1.0294044 0.003755431
000170 81 e8 9c 3e 04 52 2a be d7 12 3c 3e db c2 55 be
       0.30646136 -0.16632849 0.18366562 -0.20875113
000180 0e 41 7b 3f 12 d8 72 3f 2e 46 9c be 04 48 b0 3e
       0.9814614 0.9486095 -0.30522293 0.34429944
000190 a8 82 46 bf 86 91 80 be 19 24 d6 3e 2b fc 0f 3f
       -0.77543116 -0.25111026 0.41824415 0.5624415
0001a0 7e ef 0d 3e d7 06 a6 be c0 f5 ba 3f 2a 19 8b bd
       0.1386089 -0.32427093 1.4606247 -0.06791909
0001b0 9b 5b 34 3e 94 ad dd 3e 1b 4f e5 3e 73 62 82 3f
       0.1761307 0.43296492 0.44786915 1.0186294
0001c0 bc d2 b3 3f 8c cd 27 be b5 a4 4a be c9 eb 95 be
       1.4048686 -0.16387004 -0.19789393 -0.29281452
0001d0 d7 78 56 be 30 58 24 bf f6 11 ed be f6 b4 0e be
       -0.20944534 -0.64197063 -0.46302766 -0.13936219
0001e0 2c f3 04 be 0f 49 99 3d eb 89 32 be f5 7b b2 3f
       -0.12983388 0.07484638 -0.17435424 1.3944079
0001f0 f8 9f d5 bd 25 0f b4 bf 8a 9f c9 be 12 e7 0a 3d
       -0.10430902 -1.4067122 -0.3937953 0.033911772
000200 ab f8 2f bc 9f 86 cd be 3b ef 36 be 8f 2c 9c bc
       -0.010740439 -0.4014177 -0.17864697 -0.019064216
000210 e1 10 94 bf 94 5d bd 3b 01 90 24 3f b9 3e 54 be
       -1.1567651 0.0057789776 0.6428223 -0.20727052
000220 05 b9 b9 bf d8 42 06 bf 66 4d 96 bd 91 29 91 3e
       -1.4509588 -0.52445745 -0.07338981 0.28352025
000230 00 29 3c bc f1 a4 25 be 07 1d f5 3e fe 1c ef 3e
       -0.011484385 -0.16176201 0.4787371 0.46701807
000240 19 05 a4 3f 1a 2b 5c 3f 5f 61 b9 3e a0 f9 ad 3f
       1.2814056 0.8600327 0.362071 1.3591805
000250 b5 41 28 3f 64 9d 28 3f 53 a8 8a be 9a 00 3c 3c
       0.6572526 0.6586516 -0.27081546 0.011474753
000260 c1 f1 a2 3f 05 7a 48 3d f2 96 53 3f f7 0a 69 3f
       1.2730027 0.048944492 0.826522 0.91032356
000270 fe 3b 58 3e aa 30 f4 3d 8b 21 16 bf 95 67 5a 3f
       0.21116635 0.119233444 -0.5864493 0.85314304
000280 bb 4b cb bd eb 84 1f 3f 68 89 d9 bd 00 b7 56 3e
       -0.09926554 0.6231219 -0.10621911 0.20968246
000290 16 6d a4 3f b9 62 d8 bc 79 fd 4a 3e 6c d9 97 bd
       1.284579 -0.026414262 0.19823255 -0.07414517
0002a0 0c 4d 0d bf fb ca a5 3f 92 2c 64 be 8d 2a 03 bf
       -0.5519569 1.295257 -0.22282627 -0.512368
0002b0 7f f5 55 3d d9 a2 b1 3f 70 b7 e6 3e 12 f2 d1 3d
       0.052236076 1.3877822 0.45061827 0.102512494
0002c0 5a 43 0e 3f 54 4c 99 3f 4a 0b 62 3f 6a 25 57 3e
       0.5557152 1.1976418 0.88298476 0.21010366
0002d0 61 3a e1 3d 4f 72 2f 3f 96 4b 8d 3d 03 24 54 be
       0.10997463 0.68533796 0.068991825 -0.20716862
0002e0 45 9a dd 3e e5 7c c3 3d 0f ee 0d bf 38 8e fe 3f
       0.4328176 0.09545306 -0.55441374 1.9887152
0002f0 83 5b 2c be 9a 33 f9 be d2 c2 7f 3e c5 f0 3e 3f
       -0.16831784 -0.4867218 0.24976662 0.74586135
000300 29 39 92 3f a2 70 21 bf 0f 0e 7e bd e7 7a 80 bf
       1.1423694 -0.6306249 -0.062025126 -1.0037507
000310 70 9e 7c bf 7f e4 88 3e cf ab 49 bf 2f c9 1b 3e
       -0.98679256 0.2673683 -0.78777784 0.15213464
000320 b0 7f 75 bb f5 6f 28 bf a1 27 10 bf 09 b3 b6 3e
       -0.003746014 -0.6579583 -0.5631047 0.35683468
000330 25 ff 11 bf c2 06 37 3f fe 9b bc 3f 95 78 1a bd
       -0.57029945 0.71494687 1.4735105 -0.037712652
000340 c8 bc 78 bf 97 ce 4f 3e 3d 17 bd bc 34 4c c6 be
       -0.9716306 0.20293652 -0.02308237 -0.38730013
000350 8d af 2d bf dc 9e 40 bf 0e c3 4a be a3 a3 d8 3d
       -0.67845994 -0.752424 -0.1980097 0.10578086
000360 f3 87 be 3d 36 7c 22 bf 3f 2c 63 3f b4 c8 5d 3f
       0.09303274 -0.6347078 0.8873939 0.86634374
000370 34 ae 00 bf 31 b6 45 3f 8e 8e a3 3f 0a 57 2a be
       -0.5026581 0.7723113 1.2777879 -0.16634765
000380 4e 69 15 be 5e 5a b7 3e 6c 0c e7 be b2 52 33 be
       -0.14590952 0.35811132 -0.45126665 -0.17512015
000390 79 f2 5b be 9e 11 32 3d 98 db 43 bf 11 61 ac be
       -0.21479215 0.043473832 -0.7650695 -0.33667806
0003a0 6f 9c f7 3f d8 f3 21 3e 3a 38 85 bf 5f 98 d9 be
       1.9344615 0.15815675 -1.0407784 -0.42499062
0003b0 23 60 b1 be cf 81 96 bf 3c d9 6c 3f 35 4b 13 3f
       -0.3464366 -1.1758364 0.92518973 0.5753663
0003c0 07 77 f3 be 6b b8 ca 3e 9e b3 14 bd 02 02 4b 3f
       -0.47551748 0.39593825 -0.03630411 0.7929994
0003d0 b0 ea 94 3e b8 86 5b 3f 61 98 8a be e3 b9 f4 3e
       0.29085302 0.8575244 -0.2706938 0.4779807
0003e0 bb c6 6c bf b6 84 b7 3c 2e 14 7b bd 8b 23 2e bd
       -0.9249074 0.022402149 -0.06129854 -0.042514365
0003f0 1f 34 1a 3f 63 66 66 bf 49 e5 27 bf 77 d5 20 3f
       0.6023578 -0.8999998 -0.65584236 0.6282572

l1.bias f4 [8]
000000 99 e0 0b 3d 51 e4 ac 3e a6 e8 51 3e 4b ab 60 3f
       0.03414974 0.33767942 0.20498905 0.8776137
000010 f9 c9 df 3e 52 45 8e 3f cf 73 a5 3e 6a 35 d5 3e
       0.4370878 1.1114905 0.32314917 0.41642314

l2.weight f4 [8, 8]
000000 05 f2 dc 3f 20 3d d5 3e 2a fe 9d 3f a4 74 0c 3f
       1.7261358 0.41648197 1.234319 0.5486548
000010 d7 19 da 3f a1 6d 89 bf f0 82 f1 be cf e0 f0 3e
       1.7039136 -1.0736581 -0.4717021 0.47046515
000020 2d 47 83 3d f9 8c c4 bf 48 5a 3a be 99 fe a9 3f
       0.0641006 -1.5355521 -0.18198502 1.3280822
000030 b3 1a 89 3f 95 5f a7 3f 16 2c 87 be 14 82 a7 bf
       1.0711273 1.3076044 -0.26400822 -1.3086572
000040 65 22 38 bf f4 c9 24 40 0c 40 c1 3f 46 be b2 3f
       -0.7192748 2.5748262 1.509767 1.3964317
000050 81 0e 43 3f 9a dd df 3d 8a 6a cf bf ae de 65 bf
       0.76194006 0.10930939 -1.6204388 -0.8979291
000060 75 5a 63 3e 46 0f e1 3f f1 67 3b bf 37 9e 17 bf
       0.22202475 1.7582786 -0.73205477 -0.5922579
000070 b7 b3 73 3f 77 3d f3 3e de 98 12 40 0a 81 c8 3e
       0.951961 0.4750783 2.2905803 0.3916095
000080 1e c4 2d 3f 57 73 0b bf e7 48 84 bf 59 36 96 3f
       0.67877376 -0.5447287 -1.0334748 1.1735336
000090 70 a7 36 bf 6f 11 5e 3f 7c 3f 69 bf 11 e9 0b 40
       -0.7134924 0.8674535 -0.91112494 2.1861002
0000a0 6b 16 2f 3f cf fc b0 bf 9d c2 f7 3f 33 67 84 3e
       0.6839358 -1.3827151 1.9356266 0.25859985
0000b0 78 d5 9a bf 50 13 8c 3f 85 37 96 be d5 c7 86 3f
       -1.2096395 1.0943394 -0.29339233 1.0529734
0000c0 d1 08 5f be 4e 00 62 be fe 1d bc 3d 50 42 11 be
       -0.21780707 -0.22070429 0.09185408 -0.14185452
0000d0 a7 68 74 3d 71 83 2b bc 4a 2f 7c bd 84 8e fa bd
       0.059670117 -0.01046835 -0.061568536 -0.12234214
0000e0 dd 7c f9 bf 9c 04 78 bf e2 58 8b bf 06 30 eb 3e
       -1.949123 -0.96882033 -1.08865 0.45935076
0000f0 cd 01 c1 3f a6 3f 8f 3f 95 81 1f 3f 74 3f 8c 3e
       1.5078675 1.1191299 0.623071 0.2739216

l2.bias f4 [8]
000000 e6 a4 71 bf 27 93 23 3f f9 77 32 3f fc 16 85 be
       -0.9439224 0.6389641 0.69714314 -0.25994098
000010 aa 6c 44 3f 00 e0 a0 3b 05 38 69 be 54 28 49 3f
       0.7672831 0.0049095154 -0.22775276 0.7857716

l3.weight f4 [44, 8]
000000 83 f9 23 3f 10 85 1e c0 16 26 33 bf 23 d7 95 3e
       0.640526 -2.4768715 -0.6997999 0.292657
000010 71 8a 5b c0 d4 a3 3f c0 07 51 29 3d 1b 61 56 be
       -3.4303248 -2.9943743 0.04133704 -0.2093548
000020 af 78 a2 bf aa e6 44 c0 ce 21 2b 3f 7e 0f d2 be
       -1.269308 -3.0765786 0.66848457 -0.41027445
000030 5b 75 42 c0 6e f1 03 3f cf 68 99 3e 9d 19 44 be
       -3.0384128 0.5154027 0.29962775 -0.19150396
000040 d5 e7 b6 3b c9 3e aa 3f e0 fc cc bf f0 f9 8f 3d
       0.0055818358 1.330041 -1.6014671 0.07030094
000050 33 22 2a c0 e6 44 bb 3e 41 9e e4 bd b3 c7 25 c0
       -2.6583374 0.36576003 -0.11162997 -2.5903137
000060 a3 5b b2 3f 1e 6a 52 c0 3e d5 27 3f 95 fb fc bf
       1.3934215 -3.2877269 0.65559757 -1.9764277
000070 52 7c 3d bf 7e 74 62 bf 95 83 89 3e 03 83 20 c0
       -0.7401782 -0.88459 0.26858202 -2.5079963
000080 75 14 0f 3f f4 9e 1d c0 ee 91 0e bf ec 98 e9 3e
       0.5589059 -2.4628267 -0.5569142 0.45624483
000090 24 ff bf 3c 43 23 09 c0 42 19 f0 bb 05 0d 77 c0
       0.02343709 -2.1427772 -0.0073272297 -3.8601696
0000a0 f6 2b b2 3e 08 15 0d 3e dc 54 49 bf 8e 85 3a bf
       0.34799165 0.13777554 -0.7864511 -0.7286004
0000b0 1e 9d 1e 3f ca 32 05 bd d4 f4 99 3d 52 17 9d bf
       0.6195849 -0.03251914 0.075174004 -1.2272742
0000c0 06 ad 3d 3e 3b 00 26 3f e9 e2 58 bd 85 cb 16 c0
       0.18523034 0.648441 -0.052950773 -2.3561718
0000d0 cd e9 99 bd 9b 1f 11 3f 25 60 9d 3e f8 13 d3 bf
       -0.07515297 0.5668885 0.30737415 -1.6490469
0000e0 c8 c6 97 c0 57 56 05 c0 12 ed bf bf 1f 0e 4a bf
       -4.7430153 -2.0833948 -1.4994223 -0.789278
0000f0 1a a9 a1 be 14 56 91 3f ab 5e ac 3d 33 4c 1e 3f
       -0.31574327 1.1354394 0.08416494 0.6183502
000100 44 2b 2a c0 a7 3f 74 3e e8 48 6a c0 ee 22 93 bf
       -2.6588907 0.23852406 -3.6606998 -1.1495035
000110 88 8e 24 3d 6d 22 42 3f 6b fb 59 be fa 06 58 be
       0.04017499 0.7583378 -0.21287315 -0.21096411
000120 f7 aa 92 bf 14 5a 06 bf 60 2c 5a 3f 90 14 b4 bf
       -1.1458424 -0.524812 0.8522396 -1.4068775
000130 9c ac a9 bf ae 6b 9f 3e b3 ce 49 be 4b 27 70 bf
       -1.3255801 0.3113684 -0.19707756 -0.93809956
000140 13 67 6e bf 6f 3d 3a 3f c6 c3 dc be 11 a3 36 bf
       -0.9312603 0.7274999 -0.43118113 -0.7134257
000150 b3 40 b7 c0 53 a9 26 c0 79 de a4 3d b2 64 a0 3d
       -5.726648 -2.6040847 0.08050246 0.07831706
000160 e3 3c f7 be 38 28 c0 be 84 6d b7 bf ba e7 04 bf
       -0.4828864 -0.37530684 -1.4330297 -0.51916087
000170 2b b4 4c c0 f8 ac ab bd b3 96 2d 3d 3a f7 cf 3e
       -3.1984966 -0.083826005 0.042380046 0.40618306
000180 4f 35 04 c0 ad b0 9b 3f cf 6f 88 be 7d e5 b1 bf
       -2.0657537 1.2163292 -0.26647803 -1.3898159
000190 12 3a 08 bf 64 a6 44 3c b9 f4 f9 3d bb 06 66 bf
       -0.5321361 0.012002561 0.1220488 -0.8985402
0001a0 08 7b 76 3c 7b 46 b4 be 31 9d 2a 3e cf 49 c5 bf
       0.015043981 -0.35210022 0.16661526 -1.541315
0001b0 0c 7a e2 3e 00 3e 14 3f 2c 96 b3 3e 6a eb 69 c0
       0.4423374 0.57907104 0.3507551 -3.6549935
0001c0 5e 6e e8 3c d7 27 4d bf 59 3b 35 bf b8 f6 d2 be
       0.02837294 -0.80138916 -0.7079368 -0.41203856
0001d0 0b 6c 0b 3f 30 dd 99 3e 4a e1 9e be ff 14 aa bf
       0.54461735 0.30051565 -0.31031257 -1.3287657
0001e0 87 d5 23 3d 38 cf 0a c0 81 67 d5 bf 04 c8 93 3f
       0.039998557 -2.1688976 -1.6672212 1.1545415
0001f0 c7 6f be bf 01 22 f2 bf 51 25 36 3e 5e 88 04 c0
       -1.4877862 -1.8916627 0.17787673 -2.0708232
000200 bb 46 e9 3e a9 f1 8f 3e cb 5a 73 3d 4a 2d d5 bf
       0.45561776 0.2811406 0.05941276 -1.6654446
000210 fa be 24 c0 54 b5 17 3d 7b 44 4c 3e 3b 89 08 bf
       -2.5741563 0.037038162 0.19947998 -0.533344
000220 7f 0b 24 c0 1a 32 72 be fb df f4 3e 86 ee 13 3e
       -2.5632017 -0.23651925 0.47827134 0.14446458
000230 79 32 ae be 27 3b b4 bf 46 30 a5 be 07 ca 1a c0
       -0.34022883 -1.4080552 -0.32263392 -2.4185808
000240 78 02 92 be db 8e e0 3e a8 e8 33 3d a8 b7 18 c0
       -0.28517509 0.4385899 0.04392305 -2.3862095
000250 e6 bd 59 bf e7 b9 ec bf f4 51 83 3e 8c a9 16 3f
       -0.8505539 -1.8494233 0.25648463 0.5885246
000260 26 38 cb 3e d3 f4 c5 3d ab 27 72 3c 95 cb dc 3e
       0.39691275 0.09665837 0.014779965 0.4312407
000270 c4 4f 5d c0 c2 1d f3 bf e3 8a 10 3e d9 9e 33 c0
       -3.4579935 -1.8993456 0.14115481 -2.8065703
000280 8d 88 6d 3e cd 2c f5 3d c0 68 90 3f 53 75 d9 bf
       0.23196621 0.11971436 1.1281967 -1.698893
000290 d6 91 6a c0 4a 97 04 bd 38 78 f2 3c 49 38 08 c0
       -3.6651511 -0.032370843 0.02959834 -2.1284354
0002a0 cd ab fc be 64 62 bb bf 67 07 95 be 69 09 08 c0
       -0.49349824 -1.4639401 -0.2910721 -2.1255744
0002b0 d8 69 a6 bd 15 45 65 3f 66 35 50 3e 28 57 9d 3f
       -0.08125657 0.89558536 0.2033287 1.2292223
0002c0 f8 cc 8e c0 f5 b7 87 be da 4a 50 c0 a7 f7 88 3e
       -4.4625206 -0.26507536 -3.2545686 0.26751444
0002d0 5a 1e bf be b2 8c 07 c0 32 e0 88 3e 4d 58 09 3f
       -0.37327844 -2.1179624 0.26733547 0.5365036
0002e0 70 b5 33 c0 1f b4 8c bf 8f 33 6a c0 4e 52 4d bf
       -2.807949 -1.0992469 -3.659397 -0.8020371
0002f0 f3 80 03 3f f1 94 9a bf 89 90 4a be 01 26 c1 3f
       0.51368636 -1.2076703 -0.19781698 1.5089723
000300 2e b0 a4 be bd 45 90 bf 5d 3c e2 bf 8c 79 82 be
       -0.32165664 -1.1271282 -1.7674671 -0.25483358
000310 0e 21 32 bf 26 45 60 bf ab 67 3b be 19 4f a3 3e
       -0.6958169 -0.8760551 -0.18301265 0.31896284
000320 a9 c2 2f c0 9a 1c 76 3f f4 4f 06 c0 5a 13 32 be
       -2.746256 0.9613739 -2.09863 -0.17390195
000330 f2 a4 3f c0 91 6e d3 bf 11 fa b4 3e da 79 65 3e
       -2.9944425 -1.6518117 0.35347036 0.22409764
000340 a4 5c 39 c0 39 77 0a bf 5a ba d4 3c 8f 75 be be
       -2.8962793 -0.5408817 0.025967766 -0.37199065
000350 98 b7 9a bf b7 a7 84 bf d9 72 72 3e f0 e4 48 be
       -1.2087278 -1.0363683 0.23676623 -0.19618583
000360 ad af b3 bf bf bd e1 be fe 8d 04 3f 2f 16 f2 be
       -1.4037987 -0.44090077 0.5177916 -0.4728255
000370 e8 f7 08 c0 8d b5 54 c0 91 2a e6 3d 80 f3 86 be
       -2.140131 -3.323581 0.11238588 -0.2635765
000380 d7 65 9f bf 96 5d d8 3e 3c 29 89 bf 05 39 45 bf
       -1.2452954 0.422589 -1.0715709 -0.7704013
000390 1a 42 39 3e 4f 77 0f c0 20 c5 79 be b8 a8 79 be
       0.18091622 -2.241657 -0.24391603 -0.24380767
0003a0 2f 05 a8 3e ac b6 d6 be 64 6b 01 3f 7c 87 63 bf
       0.32816455 -0.41936243 0.5055449 -0.8887861
0003b0 ae 9d 5f be 34 c2 b9 bf 26 83 9c 3e d3 98 67 bf
       -0.21837494 -1.4512391 0.30568808 -0.90467566
0003c0 01 c7 51 c0 1c 20 6e bf d4 b1 01 bf 47 fa 2f bf
       -3.2777712 -0.93017745 -0.5066197 -0.6874127
0003d0 48 b9 43 3f 1e e8 12 bf 92 82 40 3e 01 18 08 be
       0.7645459 -0.5738543 0.18799809 -0.13290407
0003e0 75 a9 d5 c0 77 0b af 3f 72 7e cf be 77 79 29 c0
       -6.6769357 1.3675374 -0.40526158 -2.6480386
0003f0 d2 d4 07 bd d7 1f 13 c0 94 60 6f 3e 97 25 b6 3f
       -0.033161946 -2.2988183 0.23376685 1.4230222

l3.bias f4 [44]
000000 e1 8e 1e 3e 19 70 66 3e 58 a8 25 3f 97 f0 85 bf
       0.15484191 0.225037 0.6471 -1.0464047
000010 9f e6 10 be d3 fb 47 3e 55 5a c8 bc f1 40 81 3e
       -0.14150475 0.19529657 -0.024457136 0.2524486
000020 ed 9f c8 bf a2 87 11 bf 4b 2b 81 3e 9b 26 7d bf
       -1.5673805 -0.56847584 0.25228342 -0.9888703
000030 5f 2b 73 bf 42 42 9c 3c 59 c7 ac bd 39 5c 82 3e
       -0.94988054 0.019074563 -0.0843646 0.25460985
000040 95 2b bd bf 94 94 70 3e 8b 4c 49 bf c4 23 7c 3e
       -1.4778925 0.23494178 -0.7863242 0.24623019
000050 0f 82 fc be 2c 88 38 c0 2e b4 69 be f8 61 1f bf
       -0.49317977 -2.8833113 -0.2282264 -0.62258863
000060 37 dc b7 bf fa 7e 29 bf bb 77 39 3e 5c 70 85 bf
       -1.4364079 -0.66209376 0.1811208 -1.0424914
000070 2e 00 9f be 69 fd 82 be b2 64 bf bf da d1 a3 3f
       -0.31054825 -0.25583962 -1.4952605 1.2798417
000080 aa 58 39 3f 2a 6e c4 3b bf 0f 09 3e 64 6f 04 bf
       0.72400916 0.005994578 0.13384913 -0.5173247
000090 3f 5a d7 be 16 09 c2 be 6b 54 84 bf a2 53 41 bf
       -0.4206104 -0.37897557 -1.0338262 -0.7551824
0000a0 90 8d 55 bf 65 e2 fd be 81 8b 89 3f 1a 62 8a 3e
       -0.8341913 -0.49586788 1.0745698 0.2702797
